mhealth_best_model.onnx (onnx, 7334 bytes, 4 tensors)

linear1.weight f4 [64, 12]
00000000: fdc6 d9be 5b07 eebd b356 bdbe 8397 c6be
00000010: 0428 453e 647a 08be b42f 30bf 4117 093e
00000020: e7a0 7f3e f616 9fbe 71ae fa3e f999 d3bc
00000030: 587c 52bf 5ea5 c0be 1077 0abe 69c1 9b3e
00000040: e8e6 a3be 4e9f 073e ebcb 15be c6fb cf3d
00000050: 8c0d ee3e 5f7d a1be e011 293f 72c7 523f
00000060: 2d3b 30bf 310b 15bd 2cf6 54be 901e 00bf
00000070: 6392 45be 76f4 b2be c0d4 31bf 38d4 283e
00000080: 895c 323f af24 71bd 721c 9e3e eff0 cd3d
00000090: e52a 1bbf 7e89 6d3f f02f 1ebd 5410 c2be
000000a0: 3651 31be 6bdc b9bd 0f3d a73e 0deb dc3d
000000b0: c308 7ebf 01d1 ea3d dbb6 1abf b1a6 893d
000000c0: 8ba3 a33e 86be e03d c405 3ebd 3d34 09bf
000000d0: 1b0f 2ebe c1dc 113f 6b66 b1be 3b9a 95be
000000e0: c691 a3bd f51f efbe c517 073e 9aa5 823d
000000f0: 8a00 3ebe 676a 35be 41c0 39bd 2cd4 6bbe
00000100: e9f0 bbbe f9ce 663d d2a2 603f b24f 0f3e
00000110: d4f3 4d3f 4181 25bf 8822 62be 9413 993f
00000120: 9f9b ddbf 87ff e63e 8007 c53e 6a5a 1d3c
00000130: a811 5bbe 601f 3cbe 3ced 1b3d 5f6f 26bf
00000140: f607 3f3e 280f 89be a8ae 86be 765d 533e
00000150: 447c 093f aa65 be3d fe19 5fbd 8a48 80be
00000160: 88f7 b7be 51b0 ddbe 7b76 a43f b4b1 d0bd
00000170: 30fc 703f ad8e 95be 8d0e 04bf d7a6 0c3f
00000180: 5b7a d1bf e2c2 11b9 d21d f2bd f8b4 f1be
00000190: 3f1f cd3e 19a8 c7be c929 02bf 6170 bfbd
000001a0: 0631 653f 1638 303e bc1f 9fbe 6dee 6f3d
000001b0: 6908 803f 4c55 9fbd d87c 26bf 4193 3f3f
000001c0: e6c1 393e 8d9e 25bf 7a01 1c3f b1eb e4bc
000001d0: acd7 9cbe ae2c dd3d a922 c13e 8438 c4be
000001e0: 9706 0a3f 42c3 993e bae6 8b3e 5e77 c13c
000001f0: 1867 393e 8803 0d3f 2d64 4a3e 4724 d73d
00000200: eea0 f53e 8df2 abbc 5b22 af3d a2db a2bd
00000210: 4a24 aabf 7afa fabe 3288 c43c 9974 01be
00000220: 3b2d a8be df01 c73e 4c01 3dbf 11b4 d43e
00000230: 1c54 383f b7a6 5ebe b98a c83e 0d4e 443f
00000240: a4f7 05bf 3364 71bd 2bb0 ccbd 0b27 273f
00000250: d8d0 e53d 9aa1 c8bd 7be6 18bf 71ea 013f
00000260: 77f1 fdbe f35f 2b3e feff 13be 5e8f 09bf
00000270: 63ee d63d b71a 5bbc dfa6 883e e2de ce3e
00000280: 24c6 39be 0aac b2bf f5a4 093f 52d1 55be
00000290: fcaa 483f bf15 e43e b6d0 31bf e7d1 f1bd
000002a0: f396 46bf f720 a73e 316e 6d3d 096f ecbe
000002b0: 7d5c 2a3c f167 b63e 491b 36bf e970 8bbd
000002c0: f52d f6be 779a 65bd 1f2f aebe 44e3 8abe
000002d0: 5846 813e 2d3b df3d 3d64 d4bc e25a b13e
000002e0: 0fcc d83e 8957 e13e 8e64 f8bb f280 0fbe
000002f0: 594f 843e 32ce ec3e 9153 f83d 4f5a 293e
00000300: 4d6d 553f 060b f53d b73d 0dbf 1a55 31be
00000310: b6a1 c1bd a929 45be 6827 28bf 5337 a8be
00000320: 5446 70bf 41f6 1abf fc17 263e 491e 22bf
00000330: 6ceb 8a3f 5d90 003d c02a 0d3e 5450 3d3f
00000340: 90d0 b83d b397 923e d713 c13e f44c bcbe
00000350: 5db7 62bf dcc8 473d ea78 0ebf e201 a2be
00000360: 1958 8fbf 729b 0abf 9b92 bd3e 46da febd
00000370: 7cab bcbe c327 133e 1a91 18bf 57b9 5c3e
00000380: 30be 233f 60e2 9ebe 49b8 c13e 5427 283f
00000390: 896e 023f 82be 92be 2ece d43d 183c e93e
000003a0: b094 883d a763 933e 1a7c 073f 966f 393e
000003b0: 275e 0bbf 5a55 cfbd bf76 89be 34ed 0c3f
000003c0: 2852 073e e64c 18bf de5c 0bbf 20d5 ee3e
000003d0: d3dd 313e a223 1f3f bbd3 263f f839 873e
000003e0: 5cf6 a8be c6d0 17bf d780 903e 67f7 593f
000003f0: 2427 fdbf 1b8d 47bd 72bf 523e f7fc 34be
-0.4253463 -0.11622497 -0.3698021 -0.3878747 0.19253546 -0.13327938 -0.6882279 0.13387777
0.24963723 -0.31072205 0.48961213 -0.025830256 -0.82220984 -0.37626165 -0.13521981 0.30420998
-0.32012105 0.13244364 -0.1462857 0.10155444 0.4649471 -0.31540963 0.660429 0.8233558
-0.68840295 -0.036387626 -0.20797032 -0.50046635 -0.19294123 -0.34952134 -0.69465256 0.16487205
0.6967245 -0.058872875 0.30881077 0.1005572 -0.60612327 0.9278792 -0.038619936 -0.37903082
-0.17316136 -0.090752445 0.32663772 0.1078702 -0.9923212 0.114656456 -0.60435265 0.06721247
0.3196071 0.109738395 -0.046392217 -0.53595334 -0.1699795 0.5697747 -0.3464845 -0.2921923
-0.079867885 -0.4670407 0.13192661 0.06379242 -0.18554893 -0.1771637 -0.045349363 -0.23030156
-0.36707237 0.05634973 0.87748444 0.13995245 0.8045018 -0.6465035 -0.22083485 1.19591
-1.7313117 0.45116827 0.38482285 0.009604076 -0.21393454 -0.18371344 0.03806804 -0.6501369
0.1865538 -0.26769376 -0.26305127 0.20641121 0.5370524 0.09296735 -0.054468147 -0.25055343
-0.3593104 -0.4329858 1.2848657 -0.10190144 0.9413481 -0.29210415 -0.515847 0.5494208
-1.6365465 -0.00013900877 -0.11822094 -0.4720838 0.400629 -0.38995436 -0.5084501 -0.093476065
0.8952793 0.17208895 -0.310789 0.05857699 1.0002567 -0.07779941 -0.65034246 0.74834067
0.18140373 -0.64695054 0.60939753 -0.027944418 -0.30633295 0.107995376 0.37721756 -0.38324368
0.53916305 0.30031782 0.27324468 0.023616489 0.18105733 0.55083513 0.19764777 0.10504966
0.47974342 -0.02098968 0.08551475 -0.07952048 -1.3292325 -0.49019223 0.023990724 -0.12642135
-0.32847008 0.38868615 -0.73830104 0.4154363 0.7200334 -0.21743284 0.39168337 0.76681596
-0.52330995 -0.058933448 -0.09994539 0.6529395 0.112214744 -0.09796448 -0.59726685 0.50748354
-0.49598286 0.1673582 -0.14453122 -0.53734386 0.104946874 -0.0133730685 0.26689813 0.4040442
-0.18141991 -1.3958752 0.5376733 -0.2088063 0.783859 0.4454784 -0.6945909 -0.11807614
-0.7757408 0.32642338 0.057966415 -0.46178463 0.0103980275 0.35626176 -0.71135384 -0.06808645
-0.48081937 -0.056055512 -0.34020326 -0.27126515 0.2524898 0.10899959 -0.025926704 0.3463965
0.42343184 0.44012097 -0.0075803464 -0.14014032 0.25841787 0.46251065 0.12125314 0.16538356
0.83369905 0.11964993 -0.55172294 -0.1731762 -0.09454672 -0.19254173 -0.6568513 -0.3285471
-0.9385731 -0.60532004 0.16220087 -0.6332746 1.0853095 0.031387676 0.13785839 0.73950696
0.09024155 0.28631362 0.3771045 -0.3677746 -0.8856104 0.04877554 -0.5565325 -0.3164206
-1.119876 -0.5414344 0.37025914 -0.12443976 -0.36849582 0.14370637 -0.5959641 0.21555077
0.6396208 -0.31032085 0.3783591 0.6568501 0.50949913 -0.2866097 0.10390888 0.4555366
0.06668985 0.28786966 0.5292374 0.18108973 -0.5444054 -0.101237014 -0.2684841 0.55049443
0.13214934 -0.5949234 -0.5443858 0.46646976 0.17369775 0.62163746 0.65166825 0.26411414
-0.33000457 -0.5930294 0.28223297 0.8514313 -1.977757 -0.048718553 0.20580843 -0.17674623

linear1.bias f4 [64]
00000000: 2691 043c da11 9d3d 99ff ed3e 7a2a a83e
00000010: f5eb dfbc 9160 783e 1dea 0a3f 7c2d c93e
00000020: 7a0a d9bd 92d8 133e 5a2b d93e 4c43 563e
00000030: 7acd 8d3e 9937 31bd cecb f53e f9a9 dc3e
00000040: 51ec 8b3e af6d 933e d255 903e 5d6c 133d
00000050: 7d1e 093d 6a61 163f fa63 3abe 77f7 a03e
00000060: abf1 c53e a46a f13e 6b32 99bd 464c 393c
00000070: 39fc 583e d35a c03e 520b 6f3e e87e ec3e
00000080: fb9d 083f 8b3a af3e 4a9a d83c 5def df3d
00000090: 3c8e aa3e b996 ad3e 95c1 973d c34c d73e
000000a0: a537 a13c 1e43 3dbd 911a 993e 32ec 79bc
000000b0: 6972 5d3e e2ed e13e d1c0 00bc dee3 fc3b
000000c0: a68b e23d 628f a33e 43bc 483e 12a3 1fbc
000000d0: b7f8 963d 9d34 233d 0b1d e53e 9635 32bd
000000e0: ab31 c63e ce1c a43e d5a3 8ebd 7037 ee3e
000000f0: 00bd cdbd 2bf5 05be 4d60 c53e d2ac c23d
0.008091247 0.076694205 0.46484068 0.32844907 -0.027334193 0.24255587 0.5426348 0.39292514
-0.10597701 0.14438084 0.42415887 0.20924109 0.2769583 -0.043265913 0.48007053 0.4309843
0.27328733 0.2879462 0.28190476 0.035992015 0.03347634 0.5874239 -0.182022 0.314388
0.3866094 0.47151673 -0.074803196 0.011309689 0.21189965 0.37569293 0.23344162 0.46190572
0.5336606 0.34224352 0.026440758 0.10934327 0.3331164 0.33904055 0.0740997 0.42050752
0.019679854 -0.046206586 0.2990308 -0.015254067 0.21625675 0.44126803 -0.007858471 0.0077175936
0.11061792 0.3194533 0.19603066 -0.009743469 0.07371657 0.039845098 0.4474872 -0.043508135
0.3870977 0.32053226 -0.06964842 0.4652667 -0.100458145 -0.13081805 0.38550034 0.09505619

linear2.weight f4 [13, 64]
00000000: 6a55 a13e b0d4 e23f 24f5 943f 1ab6 a93f
00000010: 7837 793e d5ee 2c40 aab1 b93f 262c ad3f
00000020: 5158 0e3f fa6e 5c3f 6867 deba e1c5 fb3f
00000030: 7d2f c03e 8f16 3940 3a67 cb3e 37b3 d23c
00000040: 12b4 c43f 5c1b 323f 344f ea3f 58e5 823d
00000050: fc8a 0440 bf70 713f 1615 1040 4ec5 dd3f
00000060: dea3 0f3f 33d4 8a3e 1613 0a40 6ff7 2340
00000070: 165f 923e a6b5 903e ad2e b63e 98b8 4340
00000080: 9352 0040 9814 50be afbd 2940 6e95 c23f
00000090: c0ed 04b7 c4a5 5d40 6bc6 753f f390 81bc
000000a0: 30e3 4a40 5277 5ebe 1993 303e 6243 3fbe
000000b0: 1aed 9bbd d34c 1240 0d46 2c3f df38 3340
000000c0: e823 623e dd5a 8c3f 17cc ce3f 3dc4 4dbe
000000d0: 7abe 943f c44f 9a3d be61 583e 568d 5c40
000000e0: eceb f63f 33bb d23f 5796 2f3e 0e87 30bf
000000f0: 192e 9b3f 31a9 0d40 507b da3f d81c 6d40
00000100: a007 dabd 3578 11be 73a5 4abe fe73 5fbe
00000110: 6834 b4be 8031 35be 92bf f6bd dc90 c9bd
00000120: a66e 9bbd c0b4 3bbe dbfb 0ebf dc97 71be
00000130: 96d3 9dbe 0ea6 68be 1309 81be 1687 d2be
00000140: ea73 88bd df00 cdbd 2890 9dbe b39d 81be
00000150: 9a03 dabd a322 fcbd a892 7abe df43 c9bd
00000160: be41 44be 0f84 22be ad6e a6bd 336a 09be
00000170: 9d29 98bd 909a 6fbe f09b 63be 38ff a1bd
00000180: a0ea 86be 25fe 9dbe 32b7 6ebe eea7 79be
00000190: 5df1 cebe 3445 92be d1a9 83be 75fa 13be
000001a0: 1fe2 72be 9909 3abf c6d7 95be 3a33 04bf
000001b0: e2db f9be 9bbd 46be 3d2e 60be 6067 a8be
000001c0: de43 86be 0b03 1dbe f001 41be b565 43bf
000001d0: a411 8bbe 103a 3bbe f1ea 13be 0551 a0be
000001e0: eea5 3ebe 2edf e4bd a16a 6dbe 8704 a3be
000001f0: 9d4e 97be ada0 8abd 7841 2bbe 3d9d 5cbe
00000200: f75b 20be 28b7 79be 6be4 27be 02d1 5abe
00000210: 9cfd a9be 3ab3 bdbd 03b2 91be a74e 14be
00000220: 3b6f dcbd dbb6 21be f1e3 13bf 269d 9abe
00000230: 739e 9cbe cade 4fbe 09f6 8cbe 739f bfbe
00000240: 21ca 49be 7784 68be 6c90 35be 4df1 71bd
00000250: 0cde 32be dc82 e6bd 1944 e2bd 8fa9 f5bd
00000260: 5c71 09be a4f3 65be 22b1 02be bf97 50be
00000270: a363 53be 2ea6 6bbe b3fb fbbe 6a1b 97be
00000280: 7b35 78be 83b6 1fbe f764 5abe 0d38 43be
00000290: 85cb 16bf 31b7 c2bd f8f0 b8be 1fc3 b8bd
000002a0: 299f 00be c457 47bf 6af6 81be ec25 03bf
000002b0: cc78 aebe e576 52be 5afd 55be 3401 0dbe
000002c0: 3e69 6abe 6888 30be b29c 76be 0cff 1abf
000002d0: e6d8 2ebe 9c33 54be ca00 9dbe 1e70 b2be
000002e0: e1b6 5dbe d98d 10be f0e6 aebe 726d 82be
000002f0: 660c 40be 2fae 8bbe 6b2e 7cbe 2649 7dbe
00000300: 5ae3 6ebe f4e9 05c0 a420 9dbf f35c d8bf
00000310: 60dc 6abe 0304 6cc0 36ff c6bf 0737 efbf
00000320: 96e0 59bf 0494 e6bf 1c76 a13e 99b9 27c0
00000330: 7249 e3be 4d01 52c0 33a4 e0be 3b38 7d3e
00000340: beb4 fcbf 5e32 84bf bb74 20c0 7a5a 42bf
00000350: 8250 31c0 c9f0 b7bf b0d4 24c0 cbf6 0ac0
00000360: 5f91 05bf c990 abbe 3ab2 4dc0 8a77 5dc0
00000370: ded5 97bd e58c 00be 7b35 c9be 916a 6fc0
00000380: d075 34c0 307c e53e 9d58 43c0 5a7b 0ec0
00000390: af1a 523e ef49 75c0 1d25 94bf 50f1 c1be
000003a0: 633f 80c0 2bf8 e43e 8ed5 bc3d 1d46 df3e
000003b0: b78b a03e d5a7 10c0 e3b8 82be 0737 3fc0
000003c0: 73fb 96be dbe0 6cbf ab8c 1fc0 e915 ab3e
000003d0: 086c 4bbf da2b b0be eba5 19be 3156 77c0
000003e0: 24a7 1dc0 5816 12c0 2885 7a3e e949 713f
000003f0: a548 cabf bb69 16c0 6557 f1bf ee65 8fc0
0.31510478 1.7721157 1.1637311 1.3258698 0.24337566 2.7020772 1.4507344 1.3529098
0.5560351 0.86106837 -0.0016968073 1.9669763 0.3753623 2.8920019 0.39727193 0.025720222
1.5367453 0.69573 1.8305421 0.063914 2.070983 0.9431266 2.251287 1.7325838
0.56109416 0.2711502 2.157415 2.5619771 0.2858817 0.28263587 0.35582486 3.0581417
2.00504 -0.20320356 2.6522024 1.5201852 -7.923169e-06 3.4632425 0.96005887 -0.015816187
3.1701164 -0.21725205 0.17243613 -0.18678048 -0.07613583 2.285939 0.6729439 2.8003461
0.2208401 1.0965229 1.6156033 -0.2009439 1.1620629 0.07534745 0.21131036 3.4461265
1.9290748 1.6463379 0.17147194 -0.6895608 1.2123443 2.2134516 1.7068882 3.7048855
-0.106459856 -0.14206012 -0.19789676 -0.21821591 -0.35196233 -0.17694664 -0.12048258 -0.09842083
-0.07589464 -0.1833067 -0.5585305 -0.23593086 -0.3082549 -0.22719595 -0.25202236 -0.41118687
-0.06662734 -0.10009932 -0.30774045 -0.25315627 -0.10645218 -0.12311294 -0.24470007 -0.098273985
-0.19165704 -0.15870689 -0.081265785 -0.13419418 -0.07429812 -0.23398805 -0.22227454 -0.07910007
-0.2635088 -0.3085796 -0.23312071 -0.24380466 -0.4041852 -0.28568423 -0.25715497 -0.1445101
-0.23719071 -0.72670895 -0.29266185 -0.51640666 -0.4880057 -0.19408266 -0.21892639 -0.3289137
-0.26223654 -0.15333192 -0.18848395 -0.7632707 -0.27161896 -0.18283868 -0.14445092 -0.31311813
-0.18617985 -0.11175381 -0.23185207 -0.31839392 -0.29552165 -0.06768928 -0.16724193 -0.21544357
-0.15660082 -0.24386275 -0.16395728 -0.21368793 -0.332013 -0.092627004 -0.28456125 -0.14483128
-0.10763403 -0.1579241 -0.57769686 -0.3019802 -0.30589637 -0.20299831 -0.2753146 -0.37426338
-0.19706012 -0.22706781 -0.17730874 -0.059068013 -0.17467517 -0.11255428 -0.11048145 -0.11995231
-0.1342215 -0.22456223 -0.12762883 -0.20370387 -0.20643477 -0.23012611 -0.4921547 -0.29513103
-0.24239151 -0.15596966 -0.21327578 -0.1906435 -0.58904296 -0.09507597 -0.36121345 -0.090215914
-0.12560715 -0.77868295 -0.25383312 -0.5122974 -0.34076536 -0.20553167 -0.20897427 -0.1376999
-0.22891709 -0.17239535 -0.24083212 -0.6054542 -0.17074928 -0.20722812 -0.30664665 -0.34851164
-0.21651794 -0.1411661 -0.34160566 -0.25474125 -0.1875473 -0.2728133 -0.24627082 -0.24734935
-0.23328915 -2.0924044 -1.2275586 -1.6903366 -0.22935629 -3.6877449 -1.5546634 -1.8688668
-0.85108316 -1.8013921 0.31535423 -2.620703 -0.44391972 -3.2813294 -0.43875274 0.24728481
-1.9742658 -1.0327871 -2.5071247 -0.75919306 -2.7705388 -1.4370357 -2.5754814 -2.171313
-0.52174944 -0.335089 -3.214003 -3.460421 -0.07413839 -0.12553747 -0.39298615 -3.7408793
-2.8196907 0.4482131 -3.0522835 -2.2262788 0.20517991 -3.8326375 -1.1573826 -0.3787942
-4.0077376 0.44720587 0.0922042 0.4360818 0.31356594 -2.2602437 -0.25531682 -2.9877336
-0.29488716 -0.925306 -2.4929607 0.33415154 -0.7946172 -0.34408456 -0.15004699 -3.8646357
-2.4633265 -2.2826138 0.24464858 0.942534 -1.5803419 -2.3502033 -1.8854796 -4.4811926

linear2.bias f4 [13]
00000000: 9f80 f9bd 001e 6bbe 9f7b 89be e821 043e
00000010: c210 92be dbb4 d3bd 0be4 47be 4ebf 96be
00000020: eca3 5dbe 64da 3dbe ed5c 1cbe 7442 92be
00000030: 5981 01be
-0.12182736 -0.22960663 -0.26852128 0.12903559 -0.2852841 -0.1033723 -0.19520585 -0.2944283
-0.21644562 -0.1854034 -0.15269823 -0.28566325 -0.12646998
